data.pth (torch, 6763 bytes, 6 tensors)

l1.weight f4 [8, 85]
00000000: a79f d53d 4a6b 00bf 7f61 083f 27a9 913e
00000010: e60f f8be 9c3b 84be 2e9a 3f3f b322 53be
00000020: dea7 413f c543 203f cd2c 363f 1991 debe
00000030: 5fe2 e13d ae5a c83e c234 16be 65e7 db3e
00000040: ef6c b73e 2e1e bd3c 23aa 3a3f ee56 5b3e
00000050: e3f3 f23e 3fc2 1c3d 168c 383f 17d1 2f3f
00000060: 6f9b da3e 44e9 2f3f 3df7 453e 1833 9c3e
00000070: db47 af3e 558e 033f 3ffa e4be 6d1d 26bf
00000080: d876 40bd 7a65 24bf 7a2c 26bf c41b 26bf
00000090: ded0 7ebe 845d 973e 488f 3fbe ca55 9f3e
000000a0: fdb9 493d 1592 51be c217 cd3e 1dba 023f
000000b0: 3398 d03e 364f 2e3f 49be 2e3f 54e7 a53b
000000c0: 793c 14be 03b8 2ebe f975 fcbd b657 2dbe
000000d0: 1e51 ecbe 62e9 2f3c 07a6 0f3f 6671 393d
000000e0: 4172 f3be ef8a 453f d380 3b3f 6a93 883e
000000f0: 8591 7fbe 2113 0d3f bf39 023f 19b3 2e3f
00000100: 9c7d cfbe 7aeb d43e 30cc 293f 5c1c 26bf
00000110: 9149 c03e da02 e8be ae32 1ebe a378 50be
00000120: 2bf1 b1be cb09 313f b098 e6be b7a2 ba3e
00000130: 5ce3 b13e fcfe eebe 16b3 03bf ab6a f4be
00000140: 040c f5be fc5c eebe 3763 25bf 3caf 46be
00000150: 8a96 f3be 856c e83e b20c 4bbe 1ea2 f33c
00000160: aa4d e23d 8afc 4e3e 1d21 80be ff1c ca3e
00000170: 3a02 90be cd5b 883e aaed 983e df8a e73e
00000180: 684e 0ebe fa20 a3be 56d3 80be 42b6 003f
00000190: 0107 ad3e 7f70 cf3e 1f1e 8cbe e895 e23e
000001a0: bb3f adbd 2350 933e 52d7 5fbe 0f43 a93e
000001b0: 4c99 6abe 4e9a 8f3e 4975 aa3e 603f 893e
000001c0: 11e7 cebe 1888 8e3e 3bfe 8abe c47e 1ebe
000001d0: bdf7 18bf eb22 30be 108f 1ebf 68ee 1dbf
000001e0: a32f 15bf 3236 8abe a2e8 e93c 6a1d 47bc
000001f0: 1edf fe3e d04d 32be 0fb4 dd3c aeb4 51be
00000200: d362 a73e 6c6e 78be 165a c93e af64 713e
00000210: 0451 cc3d f20d 383f f8d0 983f 4b0a 313f
00000220: 36f0 603f b936 9b3e a470 ecbd e92d 99be
00000230: 590f c1bc aa70 c33e 0a7c c83e 8719 a63e
00000240: 11be 7e3e 60cd 563d 7a97 c6be 8b22 c03e
00000250: 5b2d 963e da46 e93e e89f ce3e ee3f a83e
00000260: ae73 50bf bc43 bb3e 966f 9ebe b2fb a93d
00000270: 5a7a aebd 6d89 a43e 8f8d bebe e596 c53d
00000280: d4d6 9abe 7c5d b4be 047e c23e 0640 103f
00000290: 0fd9 d33e c9a2 de3e 1265 c53e 0546 17bf
000002a0: bcbb 483e c7c2 bc3e a499 a8be fd62 353e
000002b0: 38b7 ea3e c8a2 b23e 6760 973e 7a1e 783e
000002c0: bf77 99be 1cb3 e53e 1eef 8bbe 4c2a 93be
000002d0: a621 93be e114 4a3f 5108 163f 1094 013e
000002e0: 9080 82be 218e 42be 16c8 fc3e b430 043f
000002f0: 0350 95be fc10 1b3e 2e16 0cbe 3f60 5b3f
00000300: c687 85be d28a 563e 2e51 1d3f ce7d 60be
00000310: 9a60 e73e 910d 2e3e 2c25 f63e b042 f03d
00000320: c34f 403f a31e 5b3f 6486 bf37 653e 4c3f
00000330: 3508 3e3f 0796 463f aae2 9d3e 1f0c 073f
00000340: 05ca fd3d 2fb8 323f 358d 373f 14c8 943e
00000350: 99d6 8e3d 3a4d b3bd 99eb ad3d 9760 7abe
00000360: c411 573f 5d14 013f 33d5 093f b644 d43e
00000370: b095 063f 3a70 0a3f 24ed d03e c495 11bd
00000380: 9666 1e3e 418e c7bc e08b a0be d90b 83be
00000390: cbde 79be c537 e93e 6b10 a53e 9d71 013e
000003a0: 7a29 f3bd 4bdd 82be 7111 fdbe 594e 003f
000003b0: 8da9 85be 5243 e93d 26b6 ee3e 0cc8 aebe
000003c0: dafd 3abe 3e9f ba3e 99d8 b0be 8bd5 ad3e
000003d0: acce 913e c0ca 493d 9599 013f b88f a0be
000003e0: 0780 a0be a88f a0be e08b a0be 7586 a0be
000003f0: bf7e 4a3f e635 e33c 9188 a0be f718 53be
0.10430842 -0.5016371 0.5327377 0.28449365 -0.4844963 -0.25826728 0.74844635 -0.20618705
0.7564677 0.6260341 0.7116211 -0.43470076 0.11029505 0.39131683 -0.14668563 0.42949978
0.35825297 0.02308568 0.7291586 0.2141988 0.47451696 0.038271185 0.72088754 0.6867842
0.4269671 0.6871531 0.19332595 0.3050773 0.3423451 0.51389056 -0.44722173 -0.6488865
-0.04698834 -0.6421734 -0.64911616 -0.64886117 -0.24884364 0.29563534 -0.18707001 0.3112014
0.049249638 -0.20465882 0.40057188 0.51065236 0.4074112 0.68089616 0.682591 0.005062977
-0.14476193 -0.17062382 -0.12327189 -0.1692799 -0.46155638 0.010736795 0.5611271 0.04527416
-0.47548106 0.7716512 0.73243445 0.26674968 -0.24957855 0.55107313 0.50869364 0.6824203
-0.4052552 0.41585904 0.6632719 -0.6488702 0.37556127 -0.45314676 -0.1544902 -0.2035852
-0.3475431 0.6915557 -0.45038366 0.36452267 0.34743774 -0.46678913 -0.5144514 -0.4773763
-0.4786073 -0.46555316 -0.64604515 -0.19402784 -0.4757579 0.45395294 -0.19829062 0.02974039
0.110499695 0.20213524 -0.25025263 0.39475247 -0.281267 0.26632538 0.29868823 0.45223138
-0.13897097 -0.31861097 -0.25161237 0.50278103 0.33794406 0.40515515 -0.2736673 0.44254994
-0.08459421 0.28772077 -0.21859482 0.33058974 -0.2291004 0.28047413 0.33292606 0.26806164
-0.40410665 0.27838206 -0.27147087 -0.15478045 -0.5975302 -0.1720082 -0.61937046 -0.61691904
-0.5827581 -0.26994473 0.02855331 -0.012153009 0.497796 -0.17412496 0.027063398 -0.2047908
0.32692584 -0.24260873 0.39326543 0.23573564 0.0997639 0.7189628 1.1938772 0.6915633
0.8786653 0.30315188 -0.11544922 -0.2991784 -0.023566889 0.38171893 0.39157134 0.3244135
0.24877192 0.052441955 -0.38787442 0.37526354 0.29331478 0.45561868 0.40356374 0.32861274
-0.81426513 0.36575115 -0.30944508 0.0829996 -0.085194305 0.32136098 -0.37217376 0.096479215
-0.30242026 -0.35227573 0.37986767 0.5634769 0.4137654 0.4348357 0.38553673 -0.59091216
0.19602865 0.36867353 -0.32929718 0.17713542 0.4584291 0.34889817 0.29565737 0.24230376
-0.29974172 0.44863212 -0.2733087 -0.28743207 -0.2873661 0.7893811 0.5860644 0.12654138
-0.2548871 -0.1899953 0.49371403 0.51636815 -0.29162607 0.15143198 -0.13680336 0.85693735
-0.2608015 0.20951393 0.61451995 -0.2192299 0.4519089 0.16997363 0.48075235 0.1173147
0.75121707 0.8559362 2.2831555e-05 0.79782706 0.7423127 0.77572674 0.30836993 0.5275287
0.12392048 0.6981229 0.7169984 0.29058897 0.06974525 -0.08754964 0.08492202 -0.24450909
0.84011483 0.50421697 0.5384094 0.41458672 0.52572155 0.54077494 0.40805924 -0.03554322
0.15468821 -0.024359824 -0.31356716 -0.25594977 -0.24401395 0.4555036 0.32239088 0.12640996
-0.118731454 -0.25559458 -0.4942737 0.5011955 -0.2610592 0.113897935 0.46623343 -0.34137
-0.18260899 0.36449617 -0.3454025 0.33951983 0.2847799 0.049265623 0.5062497 -0.3135965
-0.31347677 -0.313596 -0.31356716 -0.31352583 0.7909965 0.027735662 -0.31354192 -0.20614992

l1.bias f4 [8]
00000000: e61e 263f c619 743f 9f90 a03e 924c 633f
00000010: f5fe 443f e015 0b3f bdc5 543f cae1 ef3e
0.648909 0.9535183 0.31360337 0.8878871 0.76951534 0.54330254 0.83114225 0.4685195

l2.weight f4 [8, 8]
00000000: 6b47 d73f 3952 633e bfff 703f 4ed2 113f
00000010: c0aa 1cbf e12e 6cbf 0bbb c0be 64d5 be3f
00000020: 180a 82bd d876 a3be f678 7a3e 7d58 8dbe
00000030: 501a d6bc 651d 77be c07b fc3d f83d 07be
00000040: cf85 913f e09b c63f 642f 953f a1af 9fbf
00000050: 4d7e 9dbd c4f6 c23f 4ddc 3f3f 8151 ad3f
00000060: 57ea dcbf 3d38 3a3f 9724 8b3f d914 ea3f
00000070: 846f b93f 34f2 ce3f 66e8 bb3d 17c5 23bf
00000080: 82f0 163f 05c7 0340 7191 22bf 54cc aabf
00000090: 44dd 473b 250d e93e a8cb c43f 1be5 fbbd
000000a0: b2c3 a03e 82bd 943e 87ba 9dbf fa20 e23f
000000b0: 1847 4fbe dbdf b1bf 2f30 e73f 0a87 243f
000000c0: 291c d5be 0cef 923c 0707 413e 98f3 9c3e
000000d0: e727 873f f852 63bf 353d dabf 01f0 ac3f
000000e0: 71f3 b93f 3462 7dbe 9c38 83be 546b 0c3e
000000f0: 7163 eb3f 1223 5ebf 34a1 3fbe f34b 993e
1.681867 0.22199334 0.9414024 0.56961524 -0.61198044 -0.9225903 -0.37642702 1.4908872
-0.063495815 -0.31926608 0.24460205 -0.27606574 -0.026135594 -0.24132307 0.12328291 -0.13207233
1.136896 1.5516319 1.1655087 -1.2475473 -0.076901056 1.5231557 0.7494553 1.3540498
-1.7259015 0.7274206 1.0870541 1.8287612 1.4487157 1.6167665 0.09175186 -0.6397261
0.58960736 2.0590222 -0.63503176 -1.3343606 0.0030496875 0.4551784 1.5374651 -0.12299558
0.31399304 0.29050833 -1.2322549 1.7666314 -0.20241964 -1.389644 1.806158 0.64268553
-0.41623047 0.017936252 0.18850337 0.30654597 1.0559052 -0.88798475 -1.7049929 1.3510743
1.4527417 -0.24744493 -0.25629127 0.13712817 1.8389722 -0.86772263 -0.18713838 0.29940757

l2.bias f4 [8]
00000000: 4ba7 babe 2d9d 8abe a9f2 893d f23a 863f
00000010: 0d63 5c3f c9cf 8e3f 1151 403e 920a dcbe
-0.3645576 -0.2707304 0.06735737 1.0486739 0.8608864 1.1157161 0.18780924 -0.42976815

l3.weight f4 [9, 8]
00000000: 18e7 c7bf 0aa9 99be 7462 a9be 9fe7 323e
00000010: c4ec 1b3f e5d8 8e3f 0585 9abf e9e6 68bf
00000020: d832 303f 7036 4fbd 66ef 13be 75f1 a2bf
00000030: 3c8e 67bf d2cb ba3d 0344 81be 507c 8c3f
00000040: 92c9 b5bf 9fb3 993e 964c c43e 114f fe3e
00000050: 70b8 6c3f 5830 b6bf 3eb2 30be f703 95be
00000060: 3c01 3b3f cb50 ab3e fd95 47be 213d 64be
00000070: 49ee 7fbf 24e5 023f 9332 533f 507c 02c0
00000080: 7518 d0bf 387c a5bd 5fd1 4c3d ccb7 ac3f
00000090: 1f32 a4bf 6f19 14bf 5c89 71bf f8c0 e1bf
000000a0: e079 543f f854 a8bd ba9e 313f cc5f 21bf
000000b0: 11cf 023e 3c86 92bf 2d9a 80bf 68f4 64bf
000000c0: 0dd8 8bbf fcd9 b23d 6814 ccbf 0721 c33e
000000d0: a23d 72bf 9197 8d3e 94a8 2d3f 0d02 073f
000000e0: 2431 9b3d 2420 4ebe f725 723d 7460 2abc
000000f0: 2877 82bf 8406 c1bf 6a33 4e3f 3c40 953e
00000100: 2422 973e d88d 0dbd 5f63 793e 0ff6 eabf
00000110: ee90 453f d38a 223f 99c9 d3bf 4563 873e
-1.5617399 -0.3001178 -0.33082926 0.17471169 0.6090815 1.1159941 -1.2071844 -0.9097734
0.6882758 -0.050589025 -0.14446792 -1.2729937 -0.9045141 0.09120907 -0.252472 1.0975437
-1.4202139 0.30019853 0.3833968 0.49669698 0.9246893 -1.4233503 -0.17255494 -0.29104587
0.7304876 0.33460078 -0.1949081 -0.22288944 -0.9997297 0.5113089 0.82499045 -2.0388374
-1.6257464 -0.080803335 0.05000436 1.349359 -1.2827796 -0.5785131 -0.9435022 -1.7637014
0.82998466 -0.082193315 0.6938282 -0.630368 0.12774302 -1.1447215 -1.0047051 -0.89435434
-1.0925308 0.087329835 -1.5943727 0.38111135 -0.94625294 0.27654698 0.67835355 0.52737504
0.07577732 -0.20129448 0.059118237 -0.010398973 -1.0192614 -1.5080113 0.805472 0.2915057
0.29518235 -0.0345591 0.24354313 -1.8356341 0.7717427 0.6349308 -1.6545898 0.26442924

l3.bias f4 [9]
00000000: 4fed e73e 3b57 c3be 7289 1ebe 8e31 2abe
00000010: 2766 2a3f 73ff f9be 3108 c2be a49d 18bf
00000020: 3128 c0bd
0.4529824 -0.3815249 -0.15482119 -0.16620466 0.6656212 -0.48827705 -0.37896875 -0.5961554
-0.09382666
